model.pth (torch, 28728 bytes, 17 tensors)

bn1.weight f4 [16]
0	0x3f7319cd	0.94961244
1	0x3fa3af39	1.2787849
2	0x3f2584a0	0.64655495
3	0x3f45c300	0.7725067
4	0x3f2fb0ed	0.6862934
5	0x3f9866b5	1.1906344
6	0x3f811216	1.0083644
7	0x3fd8917f	1.6919402
8	0x3f96c9b3	1.1780304
9	0x3f4dad27	0.80342335
10	0x3f1f6abe	0.6227225
11	0x3f6935ba	0.91097605
12	0x3f672187	0.90285534
13	0x3f193340	0.59843826
14	0x3f59c778	0.8506999
15	0x3f5156ee	0.8177327

bn1.bias f4 [16]
0	0xbef65662	-0.4811278
1	0x3f09abcb	0.5377776
2	0x3ecfe3eb	0.40603575
3	0x3e1a146e	0.15046856
4	0x3f00ed1d	0.50361806
5	0x3e9096ea	0.28240138
6	0xbd8ef489	-0.06980235
7	0x3d97e823	0.074173234
8	0x3eb07838	0.3446672
9	0x3dd2aac4	0.10286477
10	0xbc866532	-0.016405676
11	0x3c9635a3	0.018336123
12	0x3e690ecd	0.22759552
13	0x3e2057c8	0.15658486
14	0xbe251b87	-0.16123782
15	0x3e9ef42f	0.31045672

bn1.running_mean f4 [16]
0	0x39b16487	0.0003383497
1	0x39f4815f	0.00046635696
2	0x390e80a1	0.00013590093
3	0x37b44117	2.1487982e-05
4	0x3a24d0bd	0.0006287208
5	0x39f96417	0.00047567554
6	0xb9abdf29	-0.0003278193
7	0xba3e7606	-0.00072655117
8	0x39893a2d	0.0002617402
9	0x37d31877	2.5164552e-05
10	0xb8a3da9d	-7.8131656e-05
11	0xba219cf3	-0.000616505
12	0x39a497e4	0.00031393685
13	0x38c12e9e	9.21164e-05
14	0xb8f22081	-0.000115455136
15	0xb99d511b	-0.00030005802

bn1.running_var f4 [16]
0	0x3f800b4c	1.0003448
1	0x3f802fc6	1.0014579
2	0x3f800dda	1.0004227
3	0x3f7fa1a1	0.99856
4	0x3f802704	1.0011907
5	0x3f80214f	1.0010165
6	0x3f776595	0.96639377
7	0x3f79f04d	0.97632295
8	0x3f823498	1.01723
9	0x3f8103ae	1.0079248
10	0x3f7ff43d	0.99982053
11	0x3f7b15cb	0.9808013
12	0x3f806aff	1.0032653
13	0x3f7ff5d0	0.99984455
14	0x3f7c0089	0.98438317
15	0x3f7a2e83	0.9772722

ln1.weight f4 [64, 16]
0	0xbed12699	-0.4084976
1	0xbf55b3a2	-0.8347722
2	0x3f259a23	0.6468832
3	0xbf87d772	-1.0612624
4	0x3ec3640a	0.3816226
5	0x3e28e684	0.16494185
6	0x3e22379d	0.15841527
7	0x3d97a56f	0.07404601
8	0xbf259e28	-0.6469445
9	0xbfb2c950	-1.3967686
10	0x3ea74fba	0.32678014
11	0xbe6bffd9	-0.23046817
12	0xbf017eb4	-0.5058396
13	0x3eccef7d	0.40026465
14	0x3e1c9b43	0.15293603
15	0xbe26c812	-0.16287258
16	0x3f4a868c	0.7911155
17	0x3c5c5767	0.013448573
18	0x3efdbc5a	0.49557763
19	0x3e87e8de	0.2654485
20	0x3e21b917	0.15793262
21	0xbceb0168	-0.028687194
22	0x3e949dc4	0.29026616
23	0xbfc6fe99	-1.5546447
24	0x3f059c4e	0.5219163
25	0x3eade65d	0.33964816
26	0xbeef3a39	-0.46724108
27	0x3e4ab517	0.19795643
28	0xbeb47057	-0.35241958
29	0x3d85ea9a	0.06538887
30	0x3df5f18e	0.120089635
31	0x3e3aa70e	0.18227789
32	0xbe9f50c8	-0.3111632
33	0xbf1d199f	-0.6136722
34	0xbf8a5cb3	-1.080954
35	0x3f4f6824	0.8101828
36	0x3efe8e91	0.49718145
37	0x3e92a676	0.28642625
38	0x3e3762b0	0.1790874
39	0x3d9328ab	0.07185491
40	0xbe58f531	-0.21187283
41	0x3df48498	0.11939353
42	0x3d6612e4	0.05617036
43	0x3df5f135	0.12008897
44	0xbe485044	-0.19561869
45	0x3f5ee5b5	0.87069255
46	0x3eef3283	0.46718225
47	0xbee0906e	-0.4386019
48	0x3d0ea5fa	0.034826256
49	0x3e1e525c	0.15461105
50	0xbfa53b69	-1.2908756
51	0xbe1855b5	-0.14876445
52	0xbe8d5c35	-0.2760941
53	0xbf4efa48	-0.8085065
54	0x3dc4366f	0.09580695
55	0x3e6cc8a6	0.23123416
56	0x3e9e5d60	0.30930614
57	0x3ebf8ef0	0.3741374
58	0xbedc3dc8	-0.43015885
59	0xbf1b074c	-0.6055801
60	0xbf7689d4	-0.9630406
61	0x3e48ebf1	0.19621255
62	0x3f144414	0.5791638
63	0x3e322fde	0.17401072
64	0xbdf3a703	-0.11897089
65	0x3d8f8c83	0.07009222
66	0xbdd0f2af	-0.10202538
67	0x3d18ccbd	0.03730463
68	0x3e4c1266	0.19928893
69	0xbfdb0010	-1.7109394
70	0xbe126507	-0.14296351
71	0xbf100a58	-0.56265783
72	0xbfe9ca87	-1.8264931
73	0x3c9a3e55	0.01882855
74	0x3f1a09bd	0.6017111
75	0x3ec3937d	0.38198462
76	0xbda52e29	-0.08065445
77	0x3d9633cb	0.073340975
78	0xbe13eab9	-0.14445008
79	0xbe0171ff	-0.12641142
80	0x3e0f4751	0.13992049
81	0xbe1a0858	-0.15042245
82	0x3d2443b4	0.04010363
83	0xbee11dd5	-0.43968073
84	0xc017b814	-2.3706102
85	0x3e8939b6	0.26801842
86	0xbf2bf242	-0.6716653
87	0x3d67c8bc	0.05658792
88	0xbd50e22d	-0.050996948
89	0x3e5bd094	0.21466285
90	0xbf38c55c	-0.72176147
91	0xbea91622	-0.33024698
92	0xbe6023b1	-0.21888615
93	0x3d65277a	0.05594585
94	0x3ee6233b	0.44948754
95	0x3dc69dd5	0.09698073
96	0x3ec8b0e2	0.3919745
97	0x3d035bd2	0.03206999
98	0xbf084896	-0.5323576
99	0x3db1bbf7	0.086784296
100	0x3e942d4d	0.28940812
101	0xbb363ed9	-0.0027808456
102	0x3ee7d1f0	0.45277357
103	0x3f8d8861	1.1057245
104	0x3dc22a95	0.09480778
105	0x3c8eef1d	0.017448002
106	0xbf5d0c34	-0.86346745
107	0xbdd1a62b	-0.10236772
108	0x3ea20d8f	0.3165097
109	0x3b9eb48b	0.0048432997
110	0xbe9b6595	-0.30350938
111	0xbf984e13	-1.1898826
112	0xbd817a86	-0.063221976
113	0xba713b36	-0.00092022435
114	0xbe2e4ed0	-0.17022252
115	0x3f2a2f8c	0.664788
116	0xbe2e1543	-0.17000298
117	0x3c3448fc	0.011003729
118	0xbf1c4875	-0.6104806
119	0x3ef2d398	0.47427058
120	0x3dd0fa31	0.1020397
121	0x3e199593	0.14998464
122	0xbdaa2cbe	-0.08309315
123	0xbe8ae59f	-0.27128312
124	0xbe3bbc9f	-0.18333672
125	0x3f3b531e	0.731737
126	0x3f8389ba	1.0276406
127	0x3f33e5ff	0.7027282
128	0x3e452b3b	0.19254772
129	0xbcb925b3	-0.022600984
130	0xbead0a44	-0.33796895
131	0xbf8776e4	-1.0583158
132	0x3ecfbfd2	0.40576035
133	0x3e88d7f4	0.2672726
134	0xbf59c1b5	-0.850612
135	0xbf1df337	-0.6169924
136	0xbfb43700	-1.4079285
137	0x3e25c83c	0.16189665
138	0x3f419900	0.75624084
139	0x3e962757	0.2932689
140	0x3e807cc5	0.25095192
141	0x3f0a93c9	0.5413175
142	0xbf15fea8	-0.585917
143	0xbf4fb630	-0.8113737
144	0x3e2e802c	0.17041081
145	0xbfe3a3eb	-1.7784399
146	0x3d32da1f	0.043665048
147	0x3e7245b5	0.23659404
148	0xbed52c14	-0.4163519
149	0x3f7fa778	0.9986491
150	0x3ebc5981	0.36787036
151	0xbf3d3224	-0.73904634
152	0xbe945480	-0.28970718
153	0x3e39e37a	0.18153182
154	0x3d98572d	0.074385025
155	0x3e3d4372	0.1848276
156	0x3e07647b	0.13221924
157	0x3df89f1c	0.12139723
158	0x3ea6ea0a	0.32600433
159	0xbe974816	-0.29547185
160	0x3e3f99d6	0.18711028
161	0xbc58e216	-0.013237497
162	0xbeb310c0	-0.34973717
163	0xbfa36165	-1.2764097
164	0xbe33d4b7	-0.17561613
165	0xbe46971b	-0.1939358
166	0x3d10dcbb	0.035366755
167	0x3d5055ba	0.050863005
168	0x3dbd3a14	0.09239593
169	0x3dda346d	0.10654531
170	0x3eb20f0a	0.347771
171	0xbea97c4b	-0.3310264
172	0xbf00a8dd	-0.50257665
173	0xbf80cdcc	-1.0062804
174	0x3e23a7bb	0.15981953
175	0xbd93ca02	-0.07216264
176	0xbee050a5	-0.43811527
177	0xbe1bacf6	-0.15202698
178	0xbe50195a	-0.20322171
179	0x3f0c4dd8	0.5480628
180	0x3c6003cc	0.01367278
181	0x3efe3f7c	0.4965781
182	0x3e0f77d6	0.14010558
183	0x3d87599a	0.06608887
184	0xbd3c1431	-0.045917694
185	0x3e119046	0.14215192
186	0xbd55de29	-0.05221382
187	0xbfe35d23	-1.7762798
188	0x3d836208	0.06415182
189	0x3f3dfb1f	0.74211305
190	0xbef44c8d	-0.47714654
191	0x3d7ba062	0.06143225
192	0x3f04165a	0.51596606
193	0xbdddba3e	-0.108265385
194	0xbdf8ddf3	-0.121517085
195	0x3da816cd	0.08207474
196	0xbf77ba28	-0.96768427
197	0x3f4c213a	0.797382
198	0xbe270cc8	-0.1631347
199	0xbe8505c9	-0.25980976
200	0xbf260169	-0.648459
201	0x3e86ce88	0.26329446
202	0xbe3ff049	-0.18744005
203	0x3f2878fb	0.658096
204	0x3c5595c7	0.013036198
205	0x3ed8ecce	0.42368168
206	0x3f4c91a8	0.79909754
207	0x3d8ad05b	0.06778022
208	0xbe5563fd	-0.20838924
209	0x3e0cc34e	0.13746378
210	0x3ed9fb7f	0.4257469
211	0xbf034c23	-0.5128805
212	0xbdacd9c5	-0.08439974
213	0x3d8b981a	0.068161204
214	0xbee47f4a	-0.44628364
215	0x3e989f75	0.29809156
216	0xc00cea09	-2.2017844
217	0x3ed4ab33	0.41536865
218	0x3d626625	0.055273194
219	0x3cffb617	0.031214757
220	0xbe8ce552	-0.27518708
221	0xbd25ab7a	-0.040446736
222	0xbecf414a	-0.404795
223	0xbbb7d922	-0.005610601
224	0x3ec28066	0.37988585
225	0xbe809073	-0.25110206
226	0xbfbaffdc	-1.4609332
227	0xbceafdfc	-0.028685562
228	0x3e005a31	0.12534405
229	0x3e71857b	0.23586075
230	0x3e4d1257	0.20026527
231	0x3f8e4789	1.1115581
232	0x3dd97d0d	0.10619555
233	0xbcb9ed05	-0.022696028
234	0x3debe3be	0.11518048
235	0x3f2a96b6	0.66636217
236	0x3d86c939	0.06581349
237	0xbd820a27	-0.06349593
238	0xbe935f9e	-0.28783888
239	0xbf230e74	-0.6369393
240	0xbe012ba0	-0.12614298
241	0x3f3cc1da	0.73733294
242	0xbfe5d1ad	-1.7954613
243	0x3f742524	0.9536917
244	0x3e0210fd	0.12701793
245	0xbe7ccc8c	-0.24687403
246	0x3e62b3a0	0.22138834
247	0x3ea343ff	0.31887814
248	0xbe48c6a3	-0.19607024
249	0x3ea4bc1d	0.3217477
250	0x3c088525	0.008332525
251	0xbed67eb4	-0.41893542
252	0x3d26975f	0.040671702
253	0x3d132d6d	0.035931993
254	0x3e6a37a9	0.22872795
255	0xbe653fb2	-0.22387579

ln1.bias f4 [64]
0	0xbfcdc334	-1.6075196
1	0xbe9d2f9c	-0.30700386
2	0xbe9444b2	-0.2895866
3	0xbf2be479	-0.67145497
4	0xbe910d23	-0.28330335
5	0xbf0d9d52	-0.55318177
6	0xbf17e201	-0.5932923
7	0xbee87c1f	-0.45407197
8	0xbe99f995	-0.30073228
9	0xbe05b399	-0.13056792
10	0xbf9796ce	-1.1842897
11	0xbf41815b	-0.75588006
12	0xbe450a93	-0.19242315
13	0x3d6dfac8	0.05810049
14	0xbd1c0858	-0.038093895
15	0xbe7b16ae	-0.2452037
16	0xbed4960c	-0.41520727
17	0xbd8880ed	-0.06665216
18	0xbf4eb809	-0.80749565
19	0xbf20b221	-0.62771803
20	0xbe04074f	-0.12893413
21	0xbf3ed67f	-0.74546045
22	0xbac4fd91	-0.0015029182
23	0xbf60bc15	-0.8778699
24	0xbdcd2ae3	-0.100179456
25	0xbf6f1f23	-0.93406886
26	0xbf1a0375	-0.60161525
27	0xbee6d341	-0.4508305
28	0x3d9426f1	0.0723399
29	0xbf18ce7e	-0.5969008
30	0xbf782fb0	-0.96947765
31	0xbf7e8b1f	-0.9943103
32	0xbf246c8f	-0.6422815
33	0xbedfe2d3	-0.4372774
34	0xbf547adf	-0.82999986
35	0xbf4e641f	-0.8062152
36	0xbee238d0	-0.4418397
37	0xbf1d2abb	-0.61393327
38	0xbee0af39	-0.43883684
39	0xbe56874e	-0.20950052
40	0xbe14ce9f	-0.14531945
41	0xbefadedb	-0.4899815
42	0xbf94699d	-1.1594731
43	0xbf1027f9	-0.56310993
44	0x3c331c61	0.010932059
45	0xbf143cd7	-0.57905334
46	0xbf0787d5	-0.5294164
47	0xbe522dc9	-0.20525278
48	0xbf785657	-0.97006744
49	0xbf3a7e85	-0.72849303
50	0xbef2ed5e	-0.47446722
51	0xbec0016d	-0.37501088
52	0xbf48c6c8	-0.78428316
53	0x3eac8c6c	0.33700883
54	0xbe5f58de	-0.21811244
55	0xbf94a797	-1.1613644
56	0xbf2b6b99	-0.66961056
57	0xbff0c217	-1.8809232
58	0xbf0f5a61	-0.5599728
59	0xbeb1d9c9	-0.3473647
60	0xbe9aa869	-0.30206612
61	0xbfa87a58	-1.3162336
62	0xbf35d246	-0.71023977
63	0xbefca412	-0.49343926

bn2.weight f4 [64]
0	0x3f6d0072	0.92578804
1	0x3f4f771a	0.8104111
2	0x3f741b60	0.9535427
3	0x3f7e54e2	0.9934827
4	0x3f7c258c	0.9849479
5	0x3f9af50c	1.2106032
6	0x3fbb91e9	1.4653903
7	0x3f7bf956	0.9842733
8	0x3f8d2167	1.1025819
9	0x3f2e80a4	0.6816504
10	0x3f92563c	1.1432567
11	0x3f55e04c	0.83545375
12	0x3f796edf	0.974348
13	0x3f6f02c8	0.9336362
14	0x3f99c59a	1.2013428
15	0x3f729241	0.94754416
16	0x3f89b8a5	1.0759474
17	0x3f607765	0.8768218
18	0x3f8938de	1.072048
19	0x3f794044	0.97363687
20	0x3f421efa	0.75828516
21	0x3f90d6d6	1.1315563
22	0x3f8bc5c8	1.0919733
23	0x3f90f36b	1.1324285
24	0x3f35d28c	0.71024394
25	0x3f81a14c	1.0127349
26	0x3f5f7ec5	0.8730281
27	0x3f61286f	0.8795232
28	0x3f29e420	0.66363716
29	0x3f888e8d	1.0668503
30	0x3f382d49	0.719441
31	0x3f95582e	1.1667535
32	0x3f816857	1.0109967
33	0x3f82c00b	1.0214857
34	0x3fa3bf17	1.2792691
35	0x3fa59de7	1.2938813
36	0x3f781109	0.96900994
37	0x3f2da4c9	0.6782957
38	0x3f27f5aa	0.6560923
39	0x3f82035f	1.0157279
40	0x3f87a8fc	1.0598445
41	0x3f7e7f37	0.99412864
42	0x3f8f8a41	1.1214067
43	0x3f77f5c1	0.96859366
44	0x3f8282f0	1.0196209
45	0x3f2d2d74	0.6764748
46	0x3f8c4c58	1.0960798
47	0x3f49a7b3	0.78771514
48	0x3f9c0dee	1.2191751
49	0x3fa2af61	1.2709771
50	0x3f368bd7	0.7130713
51	0x3f88b6f8	1.0680838
52	0x3f65daf5	0.89787227
53	0x3f12de1f	0.5737018
54	0x3f5e713f	0.8689155
55	0x3fb8c4df	1.443508
56	0x3f4cbf5b	0.79979485
57	0x3f9df44d	1.234018
58	0x3f7702f3	0.96488875
59	0x3f9b1ee7	1.2118806
60	0x3f255e2a	0.6459681
61	0x3fb9dfbe	1.4521406
62	0x3fd01030	1.625494
63	0x3f240113	0.6406414

bn2.bias f4 [64]
0	0x3d4583cb	0.04822139
1	0x3e3efe91	0.18651797
2	0x3da973bf	0.0827403
3	0x3e1b0448	0.15138352
4	0x3f016cca	0.50556624
5	0x3e9db4c3	0.30801973
6	0x3dee0054	0.11621156
7	0x3d772f9a	0.06034813
8	0x3ecb555b	0.3971356
9	0x3ca2f025	0.0198899
10	0x3e1d14a8	0.15339911
11	0x3e9f701f	0.3114023
12	0x3e10caea	0.14139906
13	0x3ebf6e21	0.3738871
14	0x3db87dd7	0.09008377
15	0x3e7cc772	0.24685457
16	0x3e85ed05	0.26157394
17	0x3e8c2468	0.27371526
18	0x3dd99d89	0.106257506
19	0x3dcad246	0.09903388
20	0x3dc30f22	0.09524371
21	0x3dd2bdce	0.102901086
22	0x3e8d8e3b	0.27647576
23	0x3e6ab031	0.22918774
24	0x3e4d3ab4	0.20041925
25	0x3dc05765	0.09391669
26	0x3e92d656	0.2867915
27	0x3e009bf8	0.12559497
28	0x3e9578a7	0.29193613
29	0x3e1267c4	0.14297396
30	0x3e0539f5	0.1301039
31	0x3ede3563	0.43400106
32	0x3ed8a8ee	0.42316383
33	0x3e10beed	0.14135332
34	0x3d0bf974	0.034173444
35	0x3f190c4b	0.5978438
36	0x3e7d704b	0.24749868
37	0x3e62a252	0.22132233
38	0x3e89c8c9	0.26911
39	0x3dd178ef	0.102281444
40	0x3e2d03db	0.16896002
41	0x3e6d8c2e	0.23198006
42	0x3dd07378	0.10178274
43	0x3df973d3	0.12180295
44	0x3de42d96	0.11141507
45	0x3e4e9323	0.20173316
46	0x3ddef6bd	0.10886905
47	0x3dcaefbd	0.09909008
48	0x3e2ad9dc	0.1668467
49	0x3e0aeac8	0.13566124
50	0x3e99e07a	0.30054075
51	0x3e73c438	0.2380532
52	0x3e35f502	0.17769244
53	0x3e602637	0.21889578
54	0x3ed95027	0.42443964
55	0x3e0737e0	0.13204908
56	0x3e16c2c5	0.14722736
57	0x3d9a9168	0.07547265
58	0x3e650be4	0.22367817
59	0x3f05261e	0.5201129
60	0x3e11df36	0.14245304
61	0x3ebfd213	0.3746496
62	0x3e0ca3bf	0.13734339
63	0x3e0f4874	0.13992482

bn2.running_mean f4 [64]
0	0x3bbf1d6a	0.005832364
1	0x3ebac6cb	0.36479792
2	0x3e1ec4cd	0.15504761
3	0x3de6a402	0.11261751
4	0x3e30f34c	0.1728031
5	0x3d308fe1	0.043105964
6	0x3e105671	0.14095475
7	0x3e911dc5	0.28343025
8	0x3e255620	0.16146135
9	0x3d29bc01	0.04143906
10	0x3ca30814	0.019901313
11	0x3ec9fdd4	0.39451468
12	0x3defc7fa	0.117080644
13	0x3e981dff	0.29710385
14	0x3ea6fc83	0.32614526
15	0x3ec9da22	0.39424235
16	0x3f1112ba	0.566692
17	0x3e228ba2	0.15873578
18	0x3d2b10f2	0.041764207
19	0x3e02029a	0.12696305
20	0x3deb22b1	0.11481226
21	0x3e085e86	0.13317308
22	0x3ee3e427	0.44510004
23	0x3d818e9e	0.0632603
24	0x3e8b1c0b	0.27169833
25	0x3d2ea4bb	0.042637568
26	0x3ef01db4	0.46897662
27	0x3e016eda	0.12639943
28	0x3da37fec	0.079833835
29	0x3d8eda11	0.069751866
30	0x3cf6af05	0.030112753
31	0x3ef30bea	0.47470027
32	0x3e544f2d	0.20733328
33	0x3d32fbf9	0.04369733
34	0x3e753f53	0.23949938
35	0x3eb2f2b5	0.34950796
36	0x3e1b9a0d	0.15195484
37	0x3e0a278d	0.1349165
38	0x3daab3e5	0.083350934
39	0x3e0ba9e5	0.13639028
40	0x3ea70ff0	0.32629347
41	0x3e502e6c	0.20330209
42	0x3c95d451	0.018289717
43	0x3ccadb8b	0.02476289
44	0x3dbbc5b5	0.09168569
45	0x3d6322d1	0.055453125
46	0x3d1b1f4f	0.037871655
47	0x3eb532a4	0.35390198
48	0x3e1b113c	0.15143293
49	0x3c7da8fc	0.015482184
50	0x3dd2ca2b	0.10292467
51	0x3e117c61	0.14207603
52	0x3da8dc33	0.08245125
53	0x3ebc210b	0.3674396
54	0x3ea340ef	0.31885478
55	0x3c868faa	0.016425926
56	0x3c9177b9	0.017757284
57	0x3c2a8398	0.010407351
58	0x3e34cff3	0.17657451
59	0x3ecf74ff	0.40518948
60	0x3db130d2	0.0865189
61	0x3e73c46c	0.23805398
62	0x3d97370e	0.07383548
63	0x3d362db4	0.04447718

bn2.running_var f4 [64]
0	0x3d147b03	0.036250126
1	0x3f4ed3b4	0.80791783
2	0x3eff6b30	0.49886465
3	0x3efd9c8f	0.49533507
4	0x3def4360	0.11682773
5	0x3da0f8bf	0.078599446
6	0x3ff1d7c8	1.8893976
7	0x4011100c	2.2666044
8	0x3e09053e	0.13380906
9	0x3daa837b	0.08325859
10	0x3d74cc5d	0.05976521
11	0x3f3a5673	0.7278816
12	0x3f139d84	0.57662225
13	0x3ec566de	0.38555044
14	0x408f09c4	4.469942
15	0x3fdec8ed	1.7405068
16	0x4043fac5	3.0621808
17	0x3e1c22e1	0.1524768
18	0x3eb1030a	0.3457263
19	0x3f95a606	1.1691291
20	0x3e557d84	0.20848662
21	0x3f58aa97	0.846353
22	0x4022b690	2.5423927
23	0x3e1e8acd	0.15482636
24	0x3eb11f01	0.34593967
25	0x3e2047d8	0.15652406
26	0x3ffe0757	1.984599
27	0x3edbf122	0.42957407
28	0x3d20720b	0.03917126
29	0x3e855c79	0.26047114
30	0x3d4685f4	0.04846759
31	0x3f9ebda5	1.2401625
32	0x3e980aa6	0.29695624
33	0x3d64c016	0.05584725
34	0x40777ef6	3.867124
35	0x3f26e286	0.651894
36	0x3f57f1d7	0.84353393
37	0x3db272ca	0.087133005
38	0x3d6ee25f	0.058321353
39	0x3f1d03cf	0.61333936
40	0x4051ca8a	3.277987
41	0x3e632b85	0.2218457
42	0x3dc85298	0.097813785
43	0x3d8d273b	0.06892248
44	0x3ea64a54	0.32478583
45	0x3d5de892	0.054176874
46	0x3dc28539	0.094980665
47	0x3fb8a676	1.44258
48	0x3faacd72	1.3343947
49	0x3cfa0bac	0.030523144
50	0x3dd02afe	0.1016445
51	0x3ed96462	0.42459399
52	0x3e075136	0.13214573
53	0x3ea5640a	0.32302886
54	0x3ea18cd3	0.31552753
55	0x3d8f5c78	0.07000059
56	0x3c874b7d	0.016515488
57	0x3d1bbb71	0.038020555
58	0x3edece02	0.43516546
59	0x3f17f5a4	0.5935919
60	0x3dc287c8	0.094985545
61	0x3ec8484c	0.39117658
62	0x3f3826dd	0.719343
63	0x3d7c9ae4	0.061671153

ln2.weight f4 [64, 64]
0	0xbe13c0ab	-0.14428966
1	0xbeae55ac	-0.34049737
2	0x3d03766d	0.03209536
3	0x3da5c835	0.08094827
4	0xbdb3d913	-0.08781638
5	0xbf230763	-0.63683146
6	0x3de6a361	0.11261631
7	0xbe08e9e6	-0.13370475
8	0xbec7e704	-0.39043438
9	0xbecd8df8	-0.40147376
10	0xbe0448e4	-0.1291843
11	0xbf67b1a5	-0.9050544
12	0xbee0b8cd	-0.43890992
13	0x3e932b9c	0.2874421
14	0x3e057492	0.1303275
15	0x3e83fc5a	0.25778466
16	0xbfa2c35f	-1.2715873
17	0xbeb81568	-0.35953832
18	0xbe6c3f2d	-0.23070975
19	0xbc17dee1	-0.009269447
20	0xbec44827	-0.38336298
21	0x3ee06d04	0.43833172
22	0xbf01d5ca	-0.5071684
23	0xbe62534a	-0.22102085
24	0x3ebd0362	0.36916643
25	0xbf1e89ba	-0.61928904
26	0xbee21657	-0.4415767
27	0xbf62b17d	-0.88552076
28	0xbefcfadd	-0.49410143
29	0x3e9e6deb	0.30943236
30	0xbd85abf9	-0.06526942
31	0x3f0571e5	0.52126914
32	0xbd9f8111	-0.07788289
33	0xbe9b01ce	-0.30274814
34	0xbe069ba4	-0.1314531
35	0xbcbca4e2	-0.023027841
36	0xbeaaa509	-0.33329037
37	0xbf11c3d8	-0.5693946
38	0x3ef066d8	0.46953464
39	0xbd4ba20a	-0.04971508
40	0xbe1919d6	-0.14951262
41	0xbecd898d	-0.40144005
42	0xbeaaca8c	-0.33357656
43	0x3b8ed524	0.0043589044
44	0xbee203ed	-0.4414362
45	0xbedbcedb	-0.42931256
46	0x3e632ba0	0.2218461
47	0x3ebe3f08	0.37157464
48	0xbe6fbeca	-0.23412624
49	0xbe8ff736	-0.28118294
50	0x3c0136f2	0.007886635
51	0xbee14be0	-0.440032
52	0xbf4ba88a	-0.79554045
53	0xbf10dcd4	-0.56586957
54	0xbf34eedf	-0.7067699
55	0xbefa24f8	-0.4885633
56	0xbf2dc808	-0.6788335
57	0x3dc1f040	0.09469652
58	0xbf2a5fc5	-0.6655238
59	0x3e129940	0.14316273
60	0xbe9da5b3	-0.3079048
61	0xbed322ae	-0.41237396
62	0xbd9caa11	-0.07649625
63	0xbf5b88b0	-0.85755444
64	0x3d1a3785	0.037650604
65	0x3e1178dc	0.1420626
66	0xbe5fd5cd	-0.21858902
67	0xbf1b0f98	-0.6057067
68	0x3f0b2737	0.5435671
69	0x3f1306ba	0.5743214
70	0xbf90fde3	-1.132748
71	0xbc9cbbef	-0.019132582
72	0xbf5bf0b3	-0.8591415
73	0xbea68cf5	-0.32529417
74	0xbef07fca	-0.46972495
75	0x3e420b3e	0.18949601
76	0x3dd505bd	0.10401485
77	0xbedb7138	-0.42859817
78	0xbf313279	-0.6921764
79	0xbf08efda	-0.53490984
80	0x3cbd94e1	0.02314228
81	0x3ec1c782	0.37847525
82	0x3eb397a1	0.3507662
83	0xbf00b8a4	-0.5028174
84	0x3ceb5bda	0.028730322
85	0x3ed520c9	0.41626576
86	0x3d88f512	0.066873685
87	0xbf6463d5	-0.8921483
88	0xbe35b68b	-0.17745416
89	0xbe988941	-0.29792216
90	0x3bd79b39	0.0065797833
91	0xbf13f51d	-0.5779589
92	0x3dfdc7c8	0.12391621
93	0xbeee6e3f	-0.46568486
94	0xbe130a77	-0.14359461
95	0xbe5f07e3	-0.21780352
96	0xbea48087	-0.3212931
97	0xbddd5fb0	-0.108092666
98	0xbcbe6130	-0.023239702
99	0xbe06c59c	-0.1316132
100	0xbee43135	-0.44568792
101	0x3e08a480	0.13344002
102	0xbe74ed7d	-0.2391872
103	0xbf515338	-0.81767607
104	0xbf888d40	-1.0668106
105	0x3e818cd1	0.25302747
106	0x3e91106b	0.28332838
107	0x3e644f98	0.22295988
108	0xbe849955	-0.25898233
109	0x3d898ff2	0.067169085
110	0xbf00c858	-0.503057
111	0xbf8b8885	-1.0901037
112	0x3eb2d4d8	0.34928012
113	0xbebaa749	-0.36455753
114	0xbf2d2d66	-0.676474
115	0xbf071309	-0.5276342
116	0xbda31e86	-0.07964806
117	0x3cd69cfc	0.026197903
118	0xbcc96a55	-0.024586836
119	0x3e665431	0.22493054
120	0xbf5470e5	-0.82984763
121	0xbea28365	-0.3174087
122	0xbd6de607	-0.0580807
123	0xbf77e17b	-0.9682843
124	0x3f314384	0.69243646
125	0x3eb2309e	0.34802717
126	0xbf81c373	-1.0137771
127	0x3d0ab221	0.033861283
128	0xbe84bfb3	-0.25927505
129	0x3df12380	0.11774349
130	0x3e142436	0.14466938
131	0x3e9a6d76	0.30161637
132	0x3df0f758	0.11765927
133	0xbe5a25ba	-0.21303454
134	0xbe81835d	-0.25295535
135	0x3e3578b8	0.17721832
136	0xbc9cceee	-0.01914164
137	0x3e6bce83	0.23027997
138	0xbdf17e27	-0.1179164
139	0xbc0b9803	-0.008520129
140	0xbe55fe6a	-0.20897833
141	0xbebf7796	-0.37395924
142	0xbea6181e	-0.32440275
143	0xbd1ff96f	-0.039056238
144	0xbde469bb	-0.11152979
145	0x3ed4c22f	0.415544
146	0xbce59474	-0.02802489
147	0x3e64aa19	0.22330512
148	0x3e747a4b	0.23874776
149	0x3f9aad0a	1.2084057
150	0xbc9b252e	-0.018938627
151	0x3d23b5fd	0.03996848
152	0x3ee5863f	0.44828984
153	0xbf2416bb	-0.64097184
154	0xbde26402	-0.11054231
155	0x3daad424	0.08341244
156	0xbce01fbf	-0.027358888
157	0xbefd1c53	-0.49435672
158	0x3d3f0782	0.04663802
159	0x3ef0050c	0.4687885
160	0xbe58519a	-0.21124879
161	0x3e1de483	0.15419202
162	0x3d7a0014	0.06103523
163	0xbf95041e	-1.1641881
164	0xbf9249f8	-1.1428823
165	0xbea390af	-0.31946322
166	0xbe8bff16	-0.27343053
167	0xbda50a78	-0.080586374
168	0x3ead93cf	0.33901832
169	0xbee0b0bd	-0.4388484
170	0xbe995b6a	-0.29952556
171	0xbe265821	-0.16244556
172	0x3ef326db	0.47490582
173	0xbd40e041	-0.047088865
174	0x3c9376f8	0.018001065
175	0xbd5178b2	-0.051140495
176	0xbee9258e	-0.45536464
177	0xbd1c5a3a	-0.038171984
178	0xbf34fd15	-0.7069867
179	0x3d9d2bc9	0.07674367
180	0x3de76e21	0.11300302
181	0x3e8327a6	0.25616187
182	0x3ea479a0	0.32124043
183	0xbec5ab28	-0.38607144
184	0xbd86518d	-0.06558523
185	0xbe9084f8	-0.28226447
186	0xbe0ad717	-0.13558613
187	0xbf558114	-0.8340008
188	0xbf0b60cb	-0.5444457
189	0xbe9f8c49	-0.31161717
190	0xbedd333b	-0.43203148
191	0xbf85d7e3	-1.0456508
192	0x3ebaac38	0.36459517
193	0xbc921407	-0.017831815
194	0xbedc3e8c	-0.4301647
195	0xbeed1c04	-0.46310437
196	0x3ef1576c	0.4713701
197	0x3e23a107	0.15979396
198	0xbf1c0cff	-0.6095733
199	0x3d63651e	0.055516355
200	0x3f095e08	0.53659105
201	0xbe89b061	-0.2689238
202	0xbf73164d	-0.94955903
203	0x3b8f6af7	0.004376765
204	0x3c026636	0.007958939
205	0x3dd74810	0.10511792
206	0xbe368286	-0.17823228
207	0x3e365ec1	0.17809583
208	0xbba633f5	-0.0050721117
209	0xbdeceec1	-0.11568976
210	0xbf2a4f1a	-0.6652695
211	0xbee033b1	-0.43789437
212	0x3e402361	0.18763496
213	0x3dd8dc35	0.10588876
214	0x3b4e238b	0.003145429
215	0x3e484191	0.19556262
216	0xbe20cd7b	-0.15703385
217	0xbeac103f	-0.33606145
218	0x3c32196b	0.010870318
219	0x3d91e6d7	0.07124107
220	0x3e9a5c7d	0.30148688
221	0xbe4f1248	-0.20221817
222	0xbf0eb095	-0.5573819
223	0x3e89da07	0.26924154
224	0x3e330c3d	0.17485137
225	0x3d2444b8	0.040104598
226	0xbf1860bd	-0.5952261
227	0x3e965ab3	0.29366073
228	0xbe467e2e	-0.19384071
229	0x3ddc0082	0.10742284
230	0x3eede951	0.4646707
231	0x3d33196c	0.043725416
232	0x3e4b8b75	0.19877417
233	0xbf328b97	-0.6974425
234	0x3d52a364	0.051425353
235	0xbe82ec42	-0.25570875
236	0xbf144c09	-0.5792852
237	0xbe0430a2	-0.12909177
238	0xbf70d3bf	-0.940731
239	0x3ceaada2	0.028647248
240	0xbf4a9c7e	-0.7914504
241	0xbe0f8f1a	-0.14019433
242	0x3ef0a7aa	0.47002918
243	0x3d9f7193	0.077853344
244	0xbf8e6538	-1.112464
245	0xbd852ae5	-0.06502322
246	0x3e15c2b6	0.14625058
247	0x3ed05844	0.4069234
248	0xbe5bd013	-0.21466093
249	0xbf229b99	-0.63518673
250	0x3dbbaad1	0.0916344
251	0x3e03d34e	0.12873575
252	0x3f0080d4	0.50196576
253	0xbed4316f	-0.41443965
254	0xbf2417c7	-0.6409878
255	0xbe62b8c3	-0.22140794

ln2.bias f4 [64]
0	0xbf47c446	-0.78033864
1	0xbee22ab2	-0.441732
2	0xbf692816	-0.9107679
3	0x3e9e90f6	0.3096997
4	0x3e27a90a	0.16373077
5	0x3d5a7a38	0.053339213
6	0xbc0e6049	-0.008689948
7	0xbc87581b	-0.016521504
8	0x3c9d5f1a	0.019210387
9	0xbed7cf36	-0.42150277
10	0xbe477314	-0.19477493
11	0xbf6878f0	-0.90809536
12	0x3e2f497c	0.17117876
13	0x3dd9933e	0.10623787
14	0x3bf52051	0.007480659
15	0xbeaa41a7	-0.33253214
16	0x3e27eb3d	0.1639833
17	0xbfdcd16d	-1.7251412
18	0xbe77475d	-0.24148317
19	0x3e1054d7	0.14094864
20	0x3e25997b	0.1617183
21	0xbc836195	-0.016037742
22	0x3d6352f4	0.055499032
23	0xbf0e701a	-0.55639803
24	0xbd624fa0	-0.055251718
25	0x3e2f191b	0.1709942
26	0xbed3639a	-0.41286927
27	0x3eef6ff6	0.46765107
28	0x3dffe5f4	0.12495032
29	0x3d2a7cea	0.041623034
30	0xbf0ab0c4	-0.5417597
31	0xbf483923	-0.78212184
32	0xbc5c49c9	-0.013445326
33	0xbe1000f2	-0.1406286
34	0x3d9f72d8	0.077855766
35	0xbf829ab4	-1.0203462
36	0xbf2463a7	-0.6421456
37	0xbc354378	-0.011063449
38	0x3dffdf30	0.124937415
39	0x3c9be61d	0.019030625
40	0x3cfd30a1	0.030906977
41	0xbf5dee09	-0.8669134
42	0x3eaad0e0	0.33362484
43	0xbe32be6c	-0.17455453
44	0xbe2e35f6	-0.17012772
45	0x3e0d1788	0.13778508
46	0x3da1337c	0.07871148
47	0xbe56d94f	-0.20981334
48	0xbe8508db	-0.2598332
49	0xbf864721	-1.0490457
50	0x3e1b07a0	0.15139627
51	0xbe7bfdbd	-0.24608512
52	0xbe1f7642	-0.15572456
53	0xbe23c359	-0.15992488
54	0x3d27b5a4	0.04094471
55	0xbdeaf6db	-0.11472865
56	0xbe75d857	-0.24008308
57	0x3e3ea978	0.18619335
58	0x3e86ebff	0.26351926
59	0xbeee7a4d	-0.46577683
60	0xbdef835f	-0.11694979
61	0x3e3d5bf8	0.18492115
62	0xbf45eed8	-0.7731757
63	0xbcf83bee	-0.030302014

bn3.weight f4 [64]
0	0x3f2b661c	0.6695268
1	0x3f320080	0.6953201
2	0x3f16c25a	0.58890307
3	0x3f46052c	0.7735164
4	0x3f0641d5	0.524442
5	0x3f69d35e	0.91338146
6	0x3f2bad3d	0.67061216
7	0x3f51fd87	0.8202748
8	0x3f61e38a	0.8823782
9	0x3eeae479	0.45877436
10	0x3efee921	0.49787238
11	0x3f247326	0.642382
12	0x3f56ad64	0.83858323
13	0x3f3960c2	0.72413266
14	0x3f02bb96	0.51067483
15	0x3f2769eb	0.65395993
16	0x3f51f402	0.8201295
17	0x3f292518	0.66072226
18	0x3f5f9af7	0.8734583
19	0x3f2fb538	0.6863589
20	0x3f339e45	0.70163375
21	0x3f4c11c1	0.7971459
22	0x3f7ff47c	0.9998243
23	0x3f283ea6	0.65720594
24	0x3f110bf8	0.5665889
25	0x3f4ab98c	0.7918937
26	0x3f35b5eb	0.7098071
27	0x3f3f6c23	0.7477438
28	0x3f1ce385	0.6128467
29	0x3f07e6c2	0.53086483
30	0x3eda662e	0.42656082
31	0x3f915069	1.1352664
32	0x3f5b376d	0.8563145
33	0x3f80bded	1.0057961
34	0x3f590235	0.8476899
35	0x3f288c8f	0.65839475
36	0x3f5cedab	0.8630015
37	0x3f036a59	0.5133415
38	0x3f0e57d9	0.55602795
39	0x3f157d64	0.58394456
40	0x3f5b9d4c	0.8578689
41	0x3f635848	0.8880658
42	0x3f5c5338	0.8606448
43	0x3f18238d	0.59429246
44	0x3f0f3463	0.5593931
45	0x3f4c877d	0.7989424
46	0x3f6da47f	0.92829126
47	0x3f0b4111	0.5439616
48	0x3f3463a9	0.7046457
49	0x3f814fd0	1.0102482
50	0x3f4fe104	0.8120272
51	0x3f774797	0.9659361
52	0x3f4a23bc	0.78960776
53	0x3f3524ad	0.7075909
54	0x3f378bfb	0.7169797
55	0x3f83d784	1.0300145
56	0x3f050d17	0.519731
57	0x3f05928d	0.52176744
58	0x3f4d488f	0.8018884
59	0x3f40f32f	0.7537107
60	0x3f15a947	0.5846142
61	0x3f18e03e	0.59717166
62	0x3f1f19f8	0.62149
63	0x3f5b8d76	0.8576273

bn3.bias f4 [64]
0	0xbc9dbbe1	-0.019254627
1	0x3daf2a7c	0.08553025
2	0xbd5a71dd	-0.053331245
3	0x3e8cfdcb	0.2753738
4	0xbdf7b541	-0.12095118
5	0x3e2f64a4	0.17128235
6	0x3dfb30d6	0.12265174
7	0x3e431eeb	0.19054763
8	0x3e69686e	0.22793743
9	0xbdbda438	-0.09259838
10	0xbdc520ce	-0.096253976
11	0xbdbe8145	-0.09302
12	0x3e939f88	0.2883265
13	0x3e6e6daf	0.23284028
14	0xbdfd2216	-0.12360017
15	0xbd39bc1e	-0.04534542
16	0x3e851a32	0.25996548
17	0xbd518747	-0.0511544
18	0x3dcde441	0.100533016
19	0xbd25d95c	-0.040490493
20	0x3e00801e	0.12548873
21	0x3e6d8f1b	0.23199122
22	0x3e5d78d8	0.2162813
23	0xbd330bbb	-0.04371236
24	0xbe227bee	-0.15867588
25	0x3e89220b	0.26783785
26	0xbde8583a	-0.11344953
27	0xbd6b615b	-0.057465892
28	0xbdebc59d	-0.11512301
29	0xbdd93099	-0.106049724
30	0xbd7264ae	-0.059178047
31	0x3e52ef8e	0.20599195
32	0xbda1087b	-0.07862946
33	0x3e853aac	0.26021326
34	0x3e972707	0.29521963
35	0xbd9a184e	-0.07524167
36	0x3e24c5bc	0.16091055
37	0xbe191038	-0.14947593
38	0xbdadc91a	-0.08485623
39	0xbe08a0d7	-0.13342606
40	0x3e521b6c	0.20518273
41	0x3dfa8139	0.122316785
42	0x3e8f310f	0.27967116
43	0xbe146ee6	-0.1449543
44	0xbe003db7	-0.12523542
45	0x3e0310c2	0.12799361
46	0x3e6031be	0.21893975
47	0xbdca05f7	-0.09864419
48	0xbd65a3e6	-0.05606451
49	0x3e40d654	0.1883176
50	0x3e46d847	0.19418441
51	0x3ea02f2e	0.31285995
52	0x3e35bf20	0.1774869
53	0x3e049c50	0.12950253
54	0xbe075bd4	-0.13218623
55	0x3e9c2702	0.3049851
56	0xbd80dbfc	-0.06291959
57	0xbe63b588	-0.22237217
58	0x3e70e00c	0.23522967
59	0xbd97cc92	-0.074120656
60	0xbdab2041	-0.08355761
61	0xbe0ef261	-0.13959648
62	0xbd5c51c5	-0.05378892
63	0x3e9191a2	0.28431422

bn3.running_mean f4 [64]
0	0x3c1f7ee7	0.009734846
1	0x3e0a955d	0.1353354
2	0x3d7be8a3	0.061501157
3	0x3f9d0e73	1.2270035
4	0x3e5fc859	0.2185377
5	0x3e2b1056	0.1670545
6	0x3e8031d7	0.25038025
7	0x3e402a9d	0.18766256
8	0x3f80a72e	1.0051019
9	0x3cf0c08a	0.029388685
10	0x3d70a72c	0.058753178
11	0x3c3066a2	0.010766657
12	0x3efc1ef0	0.49242353
13	0x3f2b902a	0.6701685
14	0x3d5e33d0	0.05424863
15	0x3f19c895	0.6007169
16	0x3f4ede0b	0.8080756
17	0x3c28fc46	0.010314053
18	0x3eb65374	0.35610545
19	0x3eb38316	0.35060948
20	0x3efdf18e	0.49598354
21	0x3ef4e8e2	0.47833925
22	0x3ef1a7fc	0.47198474
23	0x3e4cd812	0.200043
24	0x3df3198a	0.118701056
25	0x3f8c91d7	1.0982007
26	0x3d848b0f	0.06471836
27	0x3ebdc597	0.37064812
28	0x3e446253	0.19178133
29	0x3e522b9e	0.20524451
30	0x3c1a7e2e	0.009429498
31	0x3e984575	0.29740492
32	0x3e486acd	0.19571991
33	0x3e4bccbc	0.19902319
34	0x3f89df2e	1.0771234
35	0x3d3458a8	0.04402986
36	0x3e8acaa7	0.27107736
37	0x3df47ff5	0.11938468
38	0x3e51bf17	0.20483051
39	0x3db9b477	0.09067624
40	0x3e02e021	0.12780811
41	0x3d9fbdb4	0.07799855
42	0x3f815e54	1.0106912
43	0x3de0812c	0.109621376
44	0x3cfb54e5	0.03068013
45	0x3e39eff8	0.18157947
46	0x3e243953	0.16037492
47	0x3d3915b3	0.04518671
48	0x3da4ffca	0.080566004
49	0x3e91887c	0.28424442
50	0x3e92b833	0.28656158
51	0x3ee6f772	0.4511066
52	0x3f0473af	0.5173902
53	0x3f1006f8	0.56260633
54	0x3e22dfa0	0.15905619
55	0x3e6a2e29	0.22869171
56	0x3d1b40bd	0.037903536
57	0x3e1110c3	0.1416655
58	0x3eeef977	0.46674702
59	0x3c599d51	0.013282136
60	0x3e54db39	0.20786752
61	0x3e2e8429	0.17042603
62	0x3ee34474	0.44388163
63	0x3f8b15d9	1.0866042

bn3.running_var f4 [64]
0	0x3c27492f	0.010210319
1	0x3e5b84aa	0.21437326
2	0x3e23ad8d	0.15984173
3	0x400c72fa	2.1945176
4	0x3ed9e989	0.42560986
5	0x3e497d97	0.19676815
6	0x3e5df4a5	0.21675356
7	0x3e2e1697	0.17000805
8	0x40178eb4	2.368085
9	0x3d4aacb6	0.049481116
10	0x3d6e7614	0.058218077
11	0x3c3e4429	0.01161293
12	0x3f356e16	0.708711
13	0x3f3867d0	0.72033405
14	0x3d981010	0.07424939
15	0x410d3978	8.82653
16	0x3f9d6905	1.2297674
17	0x3cddb2fb	0.027062884
18	0x3faae300	1.3350525
19	0x4052bd51	3.292805
20	0x3f36f12c	0.7146175
21	0x3f159f2c	0.58446
22	0x3fb6f514	1.4293542
23	0x3f8c1b3f	1.0945815
24	0x3e0a08f5	0.1347998
25	0x403b1512	2.923161
26	0x3e863d88	0.2621882
27	0x3ed3244a	0.41238624
28	0x3f05490f	0.52064604
29	0x3f0019ba	0.50039256
30	0x3bf438e2	0.00745307
31	0x3f8d626e	1.1045663
32	0x400dcf32	2.2157712
33	0x3e50122d	0.20319434
34	0x3ffb0d35	1.9613405
35	0x3dbf77b8	0.093490064
36	0x3f350064	0.7070372
37	0x3e6385ed	0.22219057
38	0x3f143c3b	0.57904404
39	0x3dd617ab	0.10453733
40	0x3dc79eae	0.097470626
41	0x3e0c1415	0.13679536
42	0x3fe2c657	1.7716779
43	0x3e29f530	0.16597438
44	0x3cacd699	0.021098422
45	0x3e2bcc3a	0.16777125
46	0x3e09371f	0.13399933
47	0x3d9d5ad1	0.076833375
48	0x3e24d70f	0.16097663
49	0x3f76bc1c	0.9638078
50	0x3e637fe6	0.22216758
51	0x3f8eb5f0	1.1149273
52	0x3f7d1246	0.9885601
53	0x3f913569	1.1344424
54	0x3eeca418	0.46218944
55	0x3e9bf673	0.30461463
56	0x3d3d44f9	0.046208356
57	0x3e11ebe6	0.14250144
58	0x3f1a3d95	0.60250217
59	0x3c884189	0.016632812
60	0x3f183b21	0.59465224
61	0x3e807d66	0.2509567
62	0x4090bc08	4.522953
63	0x40300438	2.7502575

out.weight f4 [1, 64]
0	0x3e63ce95	0.22246774
1	0xbe80b862	-0.25140673
2	0x3e46d9b8	0.1941899
3	0xbe7dcc41	-0.24784948
4	0x3e3676d0	0.17818761
5	0xbea53043	-0.32263383
6	0xbe91f247	-0.28505155
7	0xbeb2bfdb	-0.34912
8	0xbe9c0d30	-0.3047881
9	0x3e4079d2	0.18796471
10	0x3e3c07db	0.18362372
11	0x3e608ec0	0.21929455
12	0xbeb06aaa	-0.34456378
13	0xbe6a1c8f	-0.22862457
14	0x3e49f633	0.19722824
15	0x3e4c5865	0.19955595
16	0xbea07890	-0.31341982
17	0x3e60f374	0.2196787
18	0xbedfed8c	-0.4373592
19	0x3e41f767	0.18942033
20	0xbe9176fb	-0.28411087
21	0xbe81c8d2	-0.25348526
22	0xbef61de7	-0.4806969
23	0x3e315529	0.17317642
24	0x3e40df14	0.18835098
25	0xbeb8810e	-0.3603596
26	0x3e913f60	0.28368664
27	0xbe856289	-0.2605174
28	0x3e640bbe	0.22270104
29	0x3e34896a	0.17630544
30	0x3e0af672	0.13570574
31	0xbf25db80	-0.64788055
32	0x3e8390fd	0.25696555
33	0xbedc39f8	-0.43012977
34	0xbeaa31d9	-0.33241156
35	0x3e3e598e	0.1858885
36	0xbed0eedc	-0.40807235
37	0x3e48b412	0.19599941
38	0x3e38821d	0.18018384
39	0x3e432468	0.19056857
40	0xbe83f528	-0.25772977
41	0xbeb73fbc	-0.35790813
42	0xbe87fcfb	-0.26560196
43	0x3e4c620d	0.19959278
44	0x3e3c4bd8	0.18388307
45	0xbe9c81fa	-0.30567914
46	0xbea1621e	-0.3152017
47	0x3e4bca0d	0.19901295
48	0x3e43965b	0.19100325
49	0xbf3d5c14	-0.73968625
50	0xbe7d09dc	-0.24710792
51	0xbebf986e	-0.37420982
52	0xbe5f7955	-0.21823628
53	0xbea0ecb9	-0.31430605
54	0x3e688134	0.22705537
55	0xbee13056	-0.4398219
56	0x3e3dde87	0.18541919
57	0x3e47fb61	0.19529487
58	0xbe54d4f7	-0.20784365
59	0x3e6e678b	0.23281686
60	0x3e538d15	0.20659287
61	0x3e25fc5e	0.16209552
62	0x3e2a2cd5	0.16618665
63	0xbea7edfa	-0.3279875
